…
2024-11-26 20:50:41,894 [MainThread  ] [INFO ]          d_model : 64
2024-11-26 20:50:41,907 [MainThread  ] [INFO ]  Checking/Download features and labels locally
2024-11-26 20:50:42,921 [MainThread  ] [INFO ]  Pre-compute clips
2024-11-26 20:54:55,737 [MainThread  ] [INFO ]  Checking/Download features and labels locally
2024-11-26 20:54:56,078 [MainThread  ] [INFO ]  Pre-compute clips
2024-11-26 20:56:19,775 [MainThread  ] [INFO ]  Checking/Download features and labels locally
2024-11-26 20:56:20,102 [MainThread  ] [INFO ]  Checking/Download features and labels locally
2024-11-26 20:56:20,438 [MainThread  ] [INFO ]  ContextAwareModelSeb(
  (conv_1): Conv2d(1, 128, kernel_size=(1, 512), stride=(1, 1))
  (conv_2): Conv2d(128, 32, kernel_size=(1, 1), stride=(1, 1))
  (pad_p_1): ZeroPad2d((0, 0, 5, 6))
  (pad_p_2): ZeroPad2d((0, 0, 13, 13))
  (pad_p_3): ZeroPad2d((0, 0, 19, 20))
  (pad_p_4): ZeroPad2d((0, 0, 39, 40))
  (conv_p_1): Conv2d(32, 8, kernel_size=(12, 1), stride=(1, 1), groups=8)
  (conv_p_2): Conv2d(32, 16, kernel_size=(27, 1), stride=(1, 1), groups=16)
  (conv_p_3): Conv2d(32, 32, kernel_size=(40, 1), stride=(1, 1), groups=32)
  (conv_p_4): Conv2d(32, 64, kernel_size=(80, 1), stride=(1, 1), groups=32)
  (se_p_1): SEBlock(
    (global_avg_pool): AdaptiveAvgPool2d(output_size=1)
    (fc1): Linear(in_features=8, out_features=2, bias=True)
    (fc2): Linear(in_features=2, out_features=8, bias=True)
    (sigmoid): Sigmoid()
  )
  (se_p_2): SEBlock(
    (global_avg_pool): AdaptiveAvgPool2d(output_size=1)
    (fc1): Linear(in_features=16, out_features=4, bias=True)
    (fc2): Linear(in_features=4, out_features=16, bias=True)
    (sigmoid): Sigmoid()
  )
  (se_p_3): SEBlock(
    (global_avg_pool): AdaptiveAvgPool2d(output_size=1)
    (fc1): Linear(in_features=32, out_features=8, bias=True)
    (fc2): Linear(in_features=8, out_features=32, bias=True)
    (sigmoid): Sigmoid()
  )
  (se_p_4): SEBlock(
    (global_avg_pool): AdaptiveAvgPool2d(output_size=1)
    (fc1): Linear(in_features=64, out_features=16, bias=True)
    (fc2): Linear(in_features=16, out_features=64, bias=True)
    (sigmoid): Sigmoid()
  )
  (dropout_seg): Dropout(p=0.3, inplace=False)
  (dropout_spot): Dropout(p=0.3, inplace=False)
  (conv_seg_bn): BatchNorm2d(272, eps=1e-05, momentum=0.1, affine=True, track_running_stats=True)
  (pad_seg): ZeroPad2d((0, 0, 1, 1))
  (conv_seg): Conv2d(152, 272, kernel_size=(3, 1), stride=(1, 1))
  (batch_seg): BatchNorm2d(240, eps=0.001, momentum=0.01, affine=True, track_running_stats=True)
  (max_pool_spot): MaxPool2d(kernel_size=(3, 1), stride=(2, 1), padding=0, dilation=1, ceil_mode=False)
  (pad_spot_1): ZeroPad2d((0, 0, 1, 1))
  (conv_spot_1): Conv2d(289, 32, kernel_size=(3, 1), stride=(1, 1))
  (max_pool_spot_1): MaxPool2d(kernel_size=(3, 1), stride=(2, 1), padding=0, dilation=1, ceil_mode=False)
  (pad_spot_2): ZeroPad2d((0, 0, 1, 1))
  (conv_spot_2): Conv2d(32, 16, kernel_size=(3, 1), stride=(1, 1))
  (max_pool_spot_2): MaxPool2d(kernel_size=(3, 1), stride=(2, 1), padding=0, dilation=1, ceil_mode=False)
  (conv_conf): Conv2d(464, 30, kernel_size=(1, 1), stride=(1, 1))
  (conv_class): Conv2d(464, 255, kernel_size=(1, 1), stride=(1, 1))
  (softmax): Softmax(dim=-1)
)
2024-11-26 20:56:20,439 [MainThread  ] [INFO ]  Total number of parameters: 367611
2024-11-26 20:56:21,315 [MainThread  ] [INFO ]  Start training
2024-11-26 20:56:52,711 [MainThread  ] [INFO ]  Epoch [1/500] Validation Loss: 140.1349
2024-11-26 20:57:22,598 [MainThread  ] [INFO ]  Epoch [2/500] Validation Loss: 135.1490
2024-11-26 20:57:52,270 [MainThread  ] [INFO ]  Epoch [3/500] Validation Loss: 132.2514
…
