…
2024-12-04 19:59:11,117 [MainThread  ] [INFO ]  Checking/Download features and labels locally
2024-12-04 19:59:11,452 [MainThread  ] [INFO ]  Pre-compute clips
2024-12-04 20:00:34,891 [MainThread  ] [INFO ]  Checking/Download features and labels locally
2024-12-04 20:00:35,306 [MainThread  ] [INFO ]  Checking/Download features and labels locally
2024-12-04 20:00:35,708 [MainThread  ] [INFO ]  ContextAwareModelTran(
  (transformer_layer): TransformerEncoderLayer(
    (self_attn): MultiheadAttention(
      (out_proj): NonDynamicallyQuantizableLinear(in_features=512, out_features=512, bias=True)
    )
    (linear1): Linear(in_features=512, out_features=2048, bias=True)
    (dropout): Dropout(p=0.1, inplace=False)
    (linear2): Linear(in_features=2048, out_features=512, bias=True)
    (norm1): LayerNorm((512,), eps=1e-05, elementwise_affine=True)
    (norm2): LayerNorm((512,), eps=1e-05, elementwise_affine=True)
    (dropout1): Dropout(p=0.1, inplace=False)
    (dropout2): Dropout(p=0.1, inplace=False)
  )
  (transformer_encoder): TransformerEncoder(
    (layers): ModuleList(
      (0-1): 2 x TransformerEncoderLayer(
        (self_attn): MultiheadAttention(
          (out_proj): NonDynamicallyQuantizableLinear(in_features=512, out_features=512, bias=True)
        )
        (linear1): Linear(in_features=512, out_features=2048, bias=True)
        (dropout): Dropout(p=0.1, inplace=False)
        (linear2): Linear(in_features=2048, out_features=512, bias=True)
        (norm1): LayerNorm((512,), eps=1e-05, elementwise_affine=True)
        (norm2): LayerNorm((512,), eps=1e-05, elementwise_affine=True)
        (dropout1): Dropout(p=0.1, inplace=False)
        (dropout2): Dropout(p=0.1, inplace=False)
      )
    )
  )
  (conv_seg): Sequential(
    (0): Conv1d(512, 272, kernel_size=(3,), stride=(1,), padding=(1,))
    (1): ReLU()
    (2): BatchNorm1d(272, eps=1e-05, momentum=0.1, affine=True, track_running_stats=True)
  )
  (max_pool_spot): MaxPool2d(kernel_size=(3, 1), stride=(2, 1), padding=0, dilation=1, ceil_mode=False)
  (pad_spot_1): ZeroPad2d((0, 0, 1, 1))
  (conv_spot_1): Conv2d(289, 32, kernel_size=(3, 1), stride=(1, 1))
  (max_pool_spot_1): MaxPool2d(kernel_size=(3, 1), stride=(2, 1), padding=0, dilation=1, ceil_mode=False)
  (pad_spot_2): ZeroPad2d((0, 0, 1, 1))
  (conv_spot_2): Conv2d(32, 16, kernel_size=(3, 1), stride=(1, 1))
  (max_pool_spot_2): MaxPool2d(kernel_size=(3, 1), stride=(2, 1), padding=0, dilation=1, ceil_mode=False)
  (conv_conf): Conv2d(464, 30, kernel_size=(1, 1), stride=(1, 1))
  (conv_class): Conv2d(464, 255, kernel_size=(1, 1), stride=(1, 1))
  (softmax): Softmax(dim=-1)
)
2024-12-04 20:00:35,710 [MainThread  ] [INFO ]  Total number of parameters: 10037613
2024-12-04 20:00:36,585 [MainThread  ] [INFO ]  Start training with warmup
2024-12-04 20:01:17,461 [MainThread  ] [INFO ]  Epoch [1/500] Validation Loss: 155.1043
2024-12-04 20:01:57,058 [MainThread  ] [INFO ]  Epoch [2/500] Validation Loss: 151.1538
…
