…
2024-12-05 03:29:08,693 [MainThread  ] [INFO ]          d_model : 64
2024-12-05 03:29:08,705 [MainThread  ] [INFO ]  Checking/Download features and labels locally
2024-12-05 03:29:09,714 [MainThread  ] [INFO ]  Pre-compute clips
2024-12-05 03:43:04,169 [MainThread  ] [INFO ]  Checking/Download features and labels locally
2024-12-05 03:43:04,511 [MainThread  ] [INFO ]  Pre-compute clips
2024-12-05 03:47:03,861 [MainThread  ] [INFO ]  Checking/Download features and labels locally
2024-12-05 03:47:04,202 [MainThread  ] [INFO ]  Checking/Download features and labels locally
2024-12-05 03:47:04,562 [MainThread  ] [INFO ]  ContextAwareModelTran(
  (conv_1): Conv2d(1, 128, kernel_size=(1, 512), stride=(1, 1))
  (conv_2): Conv2d(128, 32, kernel_size=(1, 1), stride=(1, 1))
  (pad_p_1): ZeroPad2d((0, 0, 5, 6))
  (pad_p_2): ZeroPad2d((0, 0, 13, 13))
  (pad_p_3): ZeroPad2d((0, 0, 19, 20))
  (pad_p_4): ZeroPad2d((0, 0, 39, 40))
  (conv_p_1): Conv2d(32, 8, kernel_size=(12, 1), stride=(1, 1))
  (conv_p_2): Conv2d(32, 16, kernel_size=(27, 1), stride=(1, 1))
  (conv_p_3): Conv2d(32, 32, kernel_size=(40, 1), stride=(1, 1))
  (conv_p_4): Conv2d(32, 64, kernel_size=(80, 1), stride=(1, 1))
  (transformer): TransformerEncoder(
    (self_attn): MultiheadAttention(
      (out_proj): NonDynamicallyQuantizableLinear(in_features=152, out_features=152, bias=True)
    )
    (ffn): Sequential(
      (0): Linear(in_features=152, out_features=512, bias=True)
      (1): ReLU()
      (2): Dropout(p=0.1, inplace=False)
      (3): Linear(in_features=512, out_features=152, bias=True)
    )
    (norm1): LayerNorm((152,), eps=1e-05, elementwise_affine=True)
    (norm2): LayerNorm((152,), eps=1e-05, elementwise_affine=True)
    (dropout): Dropout(p=0.1, inplace=False)
  )
  (positional_encoding): PositionalEncoding()
  (pad_seg): ZeroPad2d((0, 0, 1, 1))
  (conv_seg): Conv2d(152, 272, kernel_size=(3, 1), stride=(1, 1))
  (batch_seg): BatchNorm2d(240, eps=0.001, momentum=0.01, affine=True, track_running_stats=True)
  (max_pool_spot): MaxPool2d(kernel_size=(3, 1), stride=(2, 1), padding=0, dilation=1, ceil_mode=False)
  (pad_spot_1): ZeroPad2d((0, 0, 1, 1))
  (conv_spot_1): Conv2d(289, 32, kernel_size=(3, 1), stride=(1, 1))
  (max_pool_spot_1): MaxPool2d(kernel_size=(3, 1), stride=(2, 1), padding=0, dilation=1, ceil_mode=False)
  (pad_spot_2): ZeroPad2d((0, 0, 1, 1))
  (conv_spot_2): Conv2d(32, 16, kernel_size=(3, 1), stride=(1, 1))
  (max_pool_spot_2): MaxPool2d(kernel_size=(3, 1), stride=(2, 1), padding=0, dilation=1, ceil_mode=False)
  (conv_conf): Conv2d(464, 30, kernel_size=(1, 1), stride=(1, 1))
  (conv_class): Conv2d(464, 255, kernel_size=(1, 1), stride=(1, 1))
  (softmax): Softmax(dim=-1)
)
2024-12-05 03:47:04,563 [MainThread  ] [INFO ]  Total number of parameters: 828189
2024-12-05 03:47:05,466 [MainThread  ] [INFO ]  Start training with warmup
2024-12-05 03:47:37,801 [MainThread  ] [INFO ]  Epoch [1/500] Validation Loss: 149.3931
2024-12-05 03:48:09,183 [MainThread  ] [INFO ]  Epoch [2/500] Validation Loss: 141.9026
…
